CourseOne/net_no_hyperparameter_opt.pt (torch, 223655 bytes, 6 tensors)

weight f4 [64, 784]
-0.025643535 -0.0015355428 0.034114856 -0.024260748 0.005420945 0.013253478 0.0053596166 -0.02711527
0.0045765983 0.029770602 -0.017051013 0.01960034 -0.016285388 -0.0019129752 0.018507127 -0.00040170003
-0.028967742 0.017996088 0.021106392 0.01837467 0.025917944 0.015357421 0.023455855 0.00528382
0.023672476 -0.032038603 -0.0054687974 -0.0046851747 -0.017562691 0.00871578 0.0263897 -0.024673618
-0.018872298 -0.012088568 0.032398548 -0.020353548 0.044691004 -0.017328061 0.0011470136 0.0076681147
0.0054211114 0.035008054 -0.024179397 -0.033942945 0.010421952 0.017805086 0.0054447143 -0.013577873
0.010854039 -0.02267733 4.771551e-05 0.01621569 -0.0035865074 -0.010815218 -0.0017815402 0.011939084
-0.018256454 0.0013647345 0.022865597 0.0011987777 0.02375707 -0.032658562 -0.025855666 0.0021338128
0.047992792 0.0577032 0.026758714 0.071078435 0.055346243 -0.01614892 0.04209864 -0.06174125
-0.013942882 0.012568658 -0.0023419682 -0.039003905 0.008386519 0.004778236 0.032327194 0.037032045
-0.011840574 -0.034771353 -0.011888895 -0.02028476 0.029841809 0.033139873 0.015275217 0.0023211928
-0.027333558 0.0028411734 0.00320547 0.029960169 0.03577602 0.07980669 0.11750666 0.16982992
0.14874136 0.07422926 0.124323614 0.09797126 0.08058884 0.08253591 0.04179252 -0.0067039696
-0.0066159326 0.02825556 0.012227398 -0.032768913 0.015431572 -0.008970478 -0.0253469 -0.004941946
-0.014314756 0.03130457 -0.02649755 0.03274546 0.02116296 0.03745671 0.027701585 0.015502833
-0.027197858 0.04382066 0.066421226 0.087409526 0.013219694 -0.034878485 0.032229267 0.03333359
0.039678667 0.03177132 0.021510886 0.022207862 -0.018250337 -0.04258859 -0.056570224 -0.061083928
-0.023587711 -0.011475646 -0.02814389 -0.024950195 -0.0025855966 0.022775076 0.03355206 0.0076726424
-0.009216584 -0.05105643 -0.059109416 -0.09823808 -0.09615936 -0.113498636 -0.08576756 -0.051667396
-0.13377169 -0.040515624 -0.056518022 -0.032146703 0.022779226 -0.04201628 -0.020601023 0.039967116
0.096711874 -0.0140682245 -0.039555382 -0.03278771 -0.032887235 -0.009202061 -0.010158789 -0.008595831
-0.02842426 0.02019151 -0.013712187 0.036206894 0.034153607 0.0139514655 -0.065878026 -0.098876655
-0.071948916 -0.14150886 -0.12604658 -0.05011 -0.044513546 -0.014436185 -0.09116921 -0.012924922
0.012087757 -0.07538022 -0.03404444 -0.013193052 0.020347292 -0.010698161 -0.01443076 -0.051048733
0.03006678 -0.0067476956 -0.0018871481 0.004729634 0.008370841 -0.019372052 0.0010539377 0.011275496
0.075602904 -0.021097846 -0.04280571 -0.12419183 -0.08189807 -0.01213336 -0.06801733 -0.009775685
-0.15549392 -0.12977943 -0.12115643 -0.04702162 -0.05361882 0.0132780755 0.0026793678 -0.02010554
0.04781309 -0.010487324 -0.06373555 -0.03379662 0.041670904 0.061715193 -0.047828242 -0.034216117
0.035654664 -0.0308371 -0.019536555 0.011008644 -0.009163478 -0.036566757 -0.078270376 -0.058396313
-0.05936884 -0.036764707 -0.06817722 -0.014149947 -0.10038353 -0.07211444 -0.08518895 -0.026382929
0.041763887 0.06953562 0.010554187 0.054008152 0.043609925 0.015424518 -0.062345922 -0.070606835
-0.009096603 -0.0565227 -0.052201904 0.0024869477 0.0082689375 0.013211597 0.030590469 -0.014076668
00000000: 6412 d2bc 4444 c9ba 05bc 0b3d 7abe c6bc
00000010: 2fa2 b13b 1e25 593c b99f af3b d820 debc
00000020: 4af7 953b 7ae1 f33c 91ae 8bbc e490 a03c
00000030: ef68 85bc ccbc faba 429c 973c 449b d2b9
00000040: c24d edbc 886c 933c 50e7 ac3c 7a86 963c
00000050: de51 d43c b19d 7b3c 7e26 c03c e523 ad3b
00000060: c8ec c13c e93a 03bd 9933 b3bb 1886 99bb
00000070: a2df 8fbc a2cc 0e3c 362f d83c 5420 cabc
00000080: 149a 9abc 210f 46bc 57b4 043d 7cbc a6bc
00000090: ea0d 373d 94f3 8dbc 6457 963a cf44 fb3b
000000a0: 94a3 b13b 9b64 0f3d df13 c6bc c207 0bbd
000000b0: d6c0 2a3c f9db 913c 9369 b23b ba75 5ebc
000000c0: 24d5 313c cfc5 b9bc 2422 4838 c4d6 843c
000000d0: 9c0b 6bbb 5032 31bc 9282 e9ba 269c 433c
000000e0: 8f8e 95bc e4e0 b23a a250 bb3c 4e20 9d3a
000000f0: 309e c23c fcc4 05bd 43cf d3bc 70d7 0b3b
00000100: 1794 443d 315a 6c3d 1735 db3c 9291 913d
00000110: beb2 623d bd4a 84bc a06f 2c3d 65e4 7cbd
00000120: b070 64bc c6ec 4d3c b57b 19bb 8fc2 1fbd
00000130: 9c67 093c c092 9c3b 8569 043d eaae 173d
00000140: f8fe 41bc 686c 0ebd a4c9 42bc 3a2c a6bc
00000150: cf76 f43c adbd 073d e744 7a3c 271f 183b
00000160: a0ea dfbc fb32 3a3b dd12 523b 076f f53c
00000170: e089 123d b171 a33d 55a7 f03d e5e7 2d3e
00000180: a84f 183e 8305 983d 619d fe3d 28a5 c83d
00000190: c30b a53d 9608 a93d a22e 2b3d f9ac dbbb
000001a0: 77ca d8bb 3478 e73c 6d55 483c b238 06bd
000001b0: b4d4 7c3c e9f8 12bc 4da4 cfbc 0cf0 a1bb
000001c0: 7088 6abc 3939 003d 6411 d9bc 1a20 063d
000001d0: f25d ad3c 356c 193d 6fee e23c 98ff 7d3c
000001e0: 0bce debc 4b7d 333d da07 883d c403 b33d
000001f0: 6a97 583c bedc 0ebd d602 043d cd88 083d
00000200: 1986 223d a522 023d 9937 b03c 43ed b53c
00000210: bb81 95bc 6071 2ebd 2eb6 67bd 2433 7abd
00000220: 043b c1bc 5904 3cbc 048e e6bc 5a64 ccbc
00000230: 1d73 29bb cc92 ba3c e36d 093d ca6a fb3b
00000240: 2801 17bc 8c20 51bd b71c 72bd 0c31 c9bd
00000250: 33ef c4bd f971 e8bd e7a6 afbd 31a1 53bd
00000260: 72fb 08be b6f3 25bd 717f 67bd 43ac 03bd
00000270: 809b ba3c 4319 2cbd 7ac3 a8bc 8fb4 233d
00000280: e010 c63d 697e 66bc d304 22bd 684c 06bd
00000290: c4b4 06bd 3ec4 16bc 0d71 26bc 87d5 0cbc
000002a0: fed9 e8bc aa68 a53c 15a9 60bc ae4d 143d
000002b0: a7e4 0b3d b094 643c 0feb 86bd d87f cabd
000002c0: f459 93bd b3e7 10be 5b12 01be 2540 4dbd
000002d0: d653 36bd c085 6cbc ecb6 babd 0dc3 53bc
000002e0: ba0b 463c f260 9abd 2f72 0bbd ac27 58bc
000002f0: 5daf a63c 5747 2fbc ff6e 6cbc 7a18 51bd
00000300: 9c4e f63c c61b ddbb 2f5a f7ba 0cfb 9a3b
00000310: da25 093c 23b2 9ebc 4824 8a3a dcbc 383c
00000320: b2d5 9a3d 64d5 acbc 0a55 2fbd 4958 febd
00000330: 2dba a7bd 00cb 46bc ab4c 8bbd 322a 20bc
00000340: cc39 1fbe e6e4 04be dd20 f8bd be99 40bd
00000350: 689f 5bbd 498c 593c 5598 2f3b 60b4 a4bc
00000360: a9d7 433d 06d3 2bbc c987 82bd 536e 0abd
00000370: 1caf 2a3d 12c9 7c3d 8ce7 43bd 3326 0cbd
00000380: a00a 123d 169e fcbc 200b a0bc 995d 343c
00000390: 6a22 16bc 06c7 15bd 384c a0bd f930 6fbd
000003a0: be2c 73bd 9796 16bd 80a0 8bbd 2ed5 67bc
000003b0: e195 cdbd bcb0 93bd 8b77 aebd 0321 d8bc
000003c0: 9c10 2b3d b168 8e3d 78eb 2c3c a737 5d3d
000003d0: 52a0 323d 1eb7 7c3c 705e 7fbd 519a 90bd
000003e0: eb09 15bc 5984 67bd aad1 55bd 0ffc 223b
000003f0: 707a 073c 7475 583c dd98 fa3c d3a1 66bc

bias f4 [64]
-0.03429152 -0.01306026 0.036259037 0.013803137 -0.0142617235 0.022952786 0.01791136 0.024591213
0.00012913042 0.03390236 -0.0040182015 -0.014887917 0.033326574 0.031225258 -0.002741152 0.03545099
-0.01842666 0.006082507 0.02371596 -0.0034514407 -0.0063663977 -0.03575592 -0.0016185904 -0.027908882
0.0060744355 0.047398835 0.04417443 -0.014801534 0.03046596 -0.0102627585 0.01399749 -0.020364143
-0.014183309 0.024240097 0.041403756 0.034653522 0.017402418 0.00024941107 0.0020935198 -0.0028531956
0.005253905 0.032684118 0.04379486 -0.021872597 0.0023345274 0.040479515 -0.018505909 0.004201394
0.02614599 0.037074875 0.028114049 -0.012133949 0.028265722 0.023400092 0.0153152 -0.011316352
0.038423203 0.03960645 -0.014692694 -0.0030494037 0.023677494 0.039671466 0.04205013 0.0025170646
00000000: 4475 0cbd b3fa 55bc 5b84 143d 8d26 623c
00000010: 01aa 69bc 7b07 bc3c d8ba 923c 8373 c93c
00000020: 2f67 0739 33dd 0a3d 1eab 83bb 73ec 73bc
00000030: 7281 083d 1dcc ff3c e6a4 33bb 0f35 113d
00000040: 82f3 96bc c44f c73b f947 c23c 9131 62bb
00000050: 379d d0bb cd74 12bd e226 d4ba 2ba1 e4bc
00000060: 0f0c c73b 4825 423d 3ff0 343d 2282 72bc
00000070: c093 f93c 2125 28bc ba55 653c b4d2 a6bc
00000080: 1c61 68bc 2b93 c63c fc96 293d daf0 0d3d
00000090: 848f 8e3c 63c3 8239 6f33 093b aefc 3abb
000000a0: f328 ac3b c8df 053d 3d62 333d 292e b3bc
000000b0: dffe 183b d9cd 253d b499 97bc d9ab 893b
000000c0: 1d30 d63c d3db 173d 6f4f e63c 79cd 46bc
000000d0: 848d e73c 8db1 bf3c 9bec 7a3c 3868 39bc
000000e0: a661 1d3d 5f3a 223d a0b9 70bc 81d8 47bb
000000f0: 4ef7 c13c 8c7e 223d c23c 2c3d 56f5 243b

weight f4 [64, 64]
0.23647182 0.0742922 -0.06328148 -0.11543845 -0.061311893 0.1382691 0.1496253 -0.069926426
-0.09775561 0.003332056 0.11853998 -0.05968588 0.14461851 0.05024176 -0.025994647 -0.012072231
0.0074842977 0.12135813 -0.14391193 -0.038227204 -0.04542672 -0.10376751 -0.22623724 0.21947879
-0.024416279 0.045896184 0.007802088 -0.055174183 -0.39935875 -0.01020903 0.10489279 -0.06637833
-0.08653616 0.008745203 -0.06725185 0.19519205 -0.047386248 -0.120866336 0.104873694 -0.23009092
0.05056187 0.090981476 -0.010398132 -0.040193852 0.008607069 0.06059533 -0.2304851 0.14953706
0.0055657458 0.032226842 -0.12813678 0.054498866 -0.10962176 -0.058092546 -0.4051823 -0.052073527
0.15501118 -0.059495386 0.0013342936 0.06721665 -0.09507048 0.1642483 0.033229623 0.15591212
0.29645872 0.09169457 -0.21606569 0.031114629 -0.039403077 0.08464832 -0.14829032 -0.16143195
0.11191718 0.0002015035 -0.10380157 -0.22668362 -0.2161391 0.12304339 -0.08615087 -0.13902907
0.16891114 0.11653285 -0.10630129 0.2735603 0.020282151 0.016607853 -0.10684407 0.03320357
0.046221312 0.08013089 0.23319559 0.1544665 0.08505917 0.19824412 0.20030628 0.07640678
-0.013219568 -0.0352192 0.16182885 0.20520034 -0.001846031 -0.048440777 -0.18649808 0.11355865
0.119982965 -0.0243489 -0.07846413 0.0026344063 0.14850008 0.0089721335 -0.12414224 -0.14848246
0.048341937 -0.010168527 -0.03645724 0.013955845 -0.053739022 -0.2212971 0.09622984 -0.23848273
0.041259363 0.08700335 0.017919362 0.02233831 -0.0458698 0.066882364 0.033030137 0.08365487
0.02180806 0.093492076 0.15804932 0.02474033 0.031282224 0.085640684 -0.033921447 -0.2628968
0.14193487 0.0050816266 0.08995644 0.43868035 0.12555218 0.003326311 0.053329095 -0.04470991
0.1362935 -0.22374177 -0.06241179 -0.042572506 -0.10343002 -0.17939183 0.05064381 -0.035539545
0.11767571 -0.08166555 0.0035158747 -0.09931646 -0.09281926 0.013919062 -0.047511067 0.10516972
0.004911995 0.08666042 0.09128774 -0.04347585 -0.09837581 0.2096407 -0.034901116 0.12044944
-0.058818474 0.1131899 -0.02721597 0.09485874 0.19682969 0.13377471 0.08352369 0.28532183
0.07203227 -0.08553751 0.0035930357 0.14019732 0.053227257 0.027593067 -0.21715598 -0.11877794
0.08511798 0.19970134 0.047421757 0.096341655 0.17772344 0.0947862 -0.11802737 -0.10979729
-0.21104905 0.13687493 0.016678466 0.06899172 -0.06524723 -0.08733721 -0.10845989 -0.013018127
0.10217223 0.09677344 -0.22186106 -0.15892884 0.028875656 -0.19067998 -0.073149994 0.063298315
-0.024399102 0.08127293 0.13122328 0.12697469 0.11406909 0.1374764 0.1937006 -0.07197886
0.019238213 -0.07358071 0.06330536 0.07252499 0.18147291 -0.13983198 -0.12203276 -0.022115521
0.16153699 0.068035595 0.16581051 -0.1131335 -0.019403163 0.111772835 0.17648995 0.14138149
-0.3075901 -0.18250588 0.13863443 -0.0153329205 0.083060786 0.018789511 0.10766347 -0.02720959
0.031896226 -0.09529245 -0.3309334 -0.055044882 0.18089966 0.041662432 0.18009356 0.038604014
0.07794878 -0.2040353 -0.08568752 -0.07651395 0.032822292 0.033524 -0.124809735 -0.03346014
00000000: ab25 723e 8226 983d b899 81bd fe6a ecbd
00000010: 2e22 7bbd 6a96 0d3e 6037 193e 9635 8fbd
00000020: 1834 c8bd a05e 5a3b 17c5 f23d 2e79 74bd
00000030: e016 143e 4eca 4d3d baf2 d4bc 9bca 45bc
00000040: d73e f53b 9c8a f83d a65d 13be 2194 1cbd
00000050: 5e11 3abd 0f84 d4bd bcaa 67be 0cbf 603e
00000060: a604 c8bc a3fd 3b3d a8a8 ff3b 53fe 61bd
00000070: c078 ccbe c643 27bc 08d2 d63d 5df1 87bd
00000080: df39 b1bd 0a48 0f3c 57bb 89bd 6de0 473e
00000090: 1518 42bd c588 f7bd 05c8 d63d f49c 6bbe
000000a0: f719 4f3d 7f54 ba3d ed5c 2abc 4fa2 24bd
000000b0: aa04 0d3c cf32 783d 4904 6cbe 3e20 193e
000000c0: dc60 b63b 4b00 043d 4a36 03be 343a 5f3d
000000d0: 6081 e0bd 73f2 6dbd 0e74 cfbe 0d4b 55bd
000000e0: 40bb 1e3e 6fb1 73bd 77e3 ae3a e2a8 893d
000000f0: 50b4 c2bd b530 283e c91b 083d 6da7 1f3e
00000100: 70c9 973e 5dca bb3d 5340 5dbe 1be4 fe3c
00000110: 1f65 21bd 195c ad3d 6bd9 17be 6b4e 25be
00000120: d634 e53d af4a 5339 eb95 d4bd c01f 68be
00000130: 9153 5dbe 2cfe fb3d de6f b0bd a35d 0ebe
00000140: 0bf7 2c3e c6a8 ee3d 7eb4 d9bd 1810 8c3e
00000150: c126 a63c 310d 883c 10d1 dabd 7700 083d
00000160: 8f52 3d3d aa1b a43d d3ca 6e3e 772c 1e3e
00000170: 8133 ae3d 8200 4b3e 171d 4d3e 287b 9c3d
00000180: e396 58bc 0242 10bd 76b6 253e 0a20 523e
00000190: 86f6 f1ba d669 46bd 5af9 3ebe 7091 e83d
000001a0: a1b9 f53d 5877 c7bc cdb1 a0bd 01a6 2c3b
000001b0: 6810 183e dbff 123c 493e febd c90b 18be
000001c0: 3202 463d e599 26bc 3054 15bd 0ea7 643c
000001d0: 731d 5cbd b59b 62be 2614 c53d d134 74be
000001e0: 94ff 283d d02e b23d a0cb 923c d5fe b63c
000001f0: f9e1 3bbd 9ff9 883d 9c4a 073d 3f53 ab3d
00000200: d1a6 b23c c678 bf3d aed7 213e 3cac ca3c
00000210: ca21 003d 6264 af3d 37f1 0abd 699a 86be
00000220: 6057 113e c683 a63b 153b b83d b69a e03e
00000230: c090 003e 3dfe 593b 9c6f 5a3d bd21 37bd
00000240: 8690 0b3e 901c 65be 81a3 7fbd 8260 2ebd
00000250: 1ed3 d3bd 7eb2 37be e26f 4f3d ea91 11bd
00000260: f6ff f03d 4540 a7bd 976a 663b 6e66 cbbd
00000270: 0618 bebd c70c 643c f79a 42bd 3963 d73d
00000280: cdf4 a03b 057b b13d 11f5 ba3d bc13 32bd
00000290: 4279 c9bd 0dac 563e 79f4 0ebd 32ae f63d
000002a0: a4eb 70bd 1bd0 e73d 07f4 debc 4d45 c23d
000002b0: b98d 493e 3dfc 083e 780e ab3d b415 923e
000002c0: a885 933d 4a2e afbd 2379 6b3b e38f 0f3e
000002d0: d304 5a3d db0a e23c 235e 5ebe d941 f3bd
000002e0: 5652 ae3d 827e 4c3e 513d 423d c64e c53d
000002f0: 22fd 353e 441f c23d 55b8 f1bd 67dd e0bd
00000300: 3e1d 58be f128 0c3e 47a1 883c 884b 8d3d
00000310: 57a0 85bd dadd b2bd 3820 debd fb49 55bc
00000320: ad3f d13d 2731 c63d 8c2f 63be 3ebe 22be
00000330: a48c ec3c 9d41 43be aacf 95bd 8ca2 813d
00000340: a0e0 c7bc 6c72 a63d 655f 063e a705 023e
00000350: 0e9d e93d 9dc6 0c3e 7359 463e a769 93bd
00000360: 7599 9d3c 7cb1 96bd 3ea6 813d fb87 943d
00000370: 09d4 393e 1d30 0fbe 50ec f9bd 9c2b b5bc
00000380: f469 253e 3f56 8b3d 3bca 293e 89b2 e7bd
00000390: 62f3 9ebc 28e9 e43d c8b9 343e 4fc6 103e
000003a0: 737c 9dbe d2e2 3abe 2ff6 0d3e ee36 7bbc
000003b0: c61b aa3d 76ec 993c aa7e dc3d a5e6 debc
000003c0: 9ea5 023d b028 c3bd 1a70 a9be be76 61bd
000003d0: c33d 393e 3aa6 2a3d 726a 383e 3e1f 1e3d
000003e0: 9ca3 9f3d a1ee 50be f07c afbd 59b3 9cbd
000003f0: ab70 063d 7650 093d 3f9c ffbd 800d 09bd

bias f4 [64]
0.060794145 0.09636213 0.115794994 0.13624378 0.11040808 -0.042855185 0.060367312 0.0106684
-0.061776843 -0.08613843 0.080817595 -0.094105184 -0.046844292 0.10402822 -0.062413223 0.106252946
-0.08232187 -0.08613327 -0.025088191 -0.04571766 0.11693228 0.06663916 0.059987094 0.006146126
-0.074138895 0.009617582 0.1343193 -0.016054861 0.012853722 -0.034248237 -0.059644196 0.009218362
0.026449561 0.073143154 0.14310947 0.052484553 0.04132425 -0.06595679 0.0529974 0.023344997
-0.0146601945 0.031012816 -0.07580103 -0.101738855 0.06917458 0.027732873 -0.1035865 0.09914271
-0.08465272 0.068530545 -0.0079436805 -0.12500177 -0.0806149 -0.037794992 -0.07369961 0.06829133
0.024848305 0.002848922 -0.02926855 0.14068803 -0.082541585 -0.059721567 -0.054050744 0.029017752
00000000: 4803 793d 8259 c53d ed25 ed3d 7d83 0b3e
00000010: a21d e23d eb88 2fbd b743 773d 83ca 2e3c
00000020: b709 7dbd 5869 b0bd b283 a53d 38ba c0bd
00000030: cddf 3fbd bf0c d53d 02a5 7fbd 259b d93d
00000040: 5e98 a8bd a466 b0bd c085 cdbc 7142 3bbd
00000050: 317a ef3d 1d7a 883d 07b5 753d 7165 c93b
00000060: 22d6 97bd 1093 1d3c 008b 093e 7c85 83bc
00000070: 6b98 523c e147 0cbd 794d 74bd 9d08 173c
00000080: c0ac d83c 14cc 953d 4a8b 123e 0bfa 563d
00000090: 9e43 293d 5a14 87bd cd13 593d 023e bf3c
000000a0: 5031 70bc 970e fe3c 923d 9bbd 765c d0bd
000000b0: 67ab 8d3d 0d30 e33c 2925 d4bd 550b cb3d
000000c0: 685e adbd be59 8c3d 3626 02bc 7700 00be
000000d0: 6d19 a5bd ecce 1abd d2ef 96bd 53dc 8b3d
000000e0: ac8e cb3c fbb4 3a3b 99c4 efbc 8610 103e
000000f0: 900b a9bd 9a9e 74bd 5064 5dbd a3b6 ed3c

weight f4 [10, 64]
0.11665588 0.16901483 0.13588409 -0.23749359 -0.30802923 -0.27197668 0.12714888 -0.035364497
-0.17513186 0.24568208 -0.108911976 -0.1602383 0.058676984 -0.3743721 -0.10388769 0.103100546
-0.1687288 -0.26107854 0.01770564 0.22363502 -0.2885485 -0.16080374 0.09954013 0.20720261
0.12061138 -0.22074102 0.012869538 0.13220051 -0.1841534 0.14590435 -0.02167548 -0.15221013
0.094613835 0.10004369 0.03978625 0.13143797 -0.041618895 0.07933973 -0.37141562 -0.11514526
-0.3188531 -0.3137798 -0.5743274 -0.034596287 -0.27874053 -0.29649374 0.1428333 0.008252361
0.11579508 -0.18468118 0.058371343 0.036521647 -0.067879885 -0.1222133 0.08888641 0.040793292
0.08107104 -0.1340153 -0.30961764 -0.02275121 -0.15340784 0.14870529 -0.0074802223 0.20100965
-0.22121727 -0.12683907 0.09188604 0.24263135 0.1810925 0.20569979 -0.13123333 -0.17630038
0.10676773 -0.21419637 -0.005605593 0.12918094 -0.048818294 -0.0037720634 -0.060939096 0.014423185
-0.07027915 -0.08613291 -0.006604733 0.14091542 -0.113195784 -0.03841941 -0.23915978 0.113267295
-0.012631481 0.23182404 0.23117104 -0.12436935 -0.16081917 -0.09520332 -0.089712754 0.15408412
-0.23364882 -0.02130611 -0.03214433 0.12608793 0.059424814 0.14029038 0.22857216 -0.31122243
0.18318066 -0.07915024 -0.030873934 0.10839507 0.13507931 0.1582004 0.05897524 0.32033175
-0.20768297 -0.19504142 0.19680345 -0.06724909 -0.15379265 0.05884523 0.114117935 0.08914407
0.1757454 -0.2979324 0.13371326 0.050335016 -0.084095076 -0.18747607 0.08375821 -0.13049036
-0.09309926 0.053196836 0.22051027 -0.35676026 0.026581457 -0.046874512 0.07472017 -0.024985353
0.105211094 0.115627654 -0.15899484 0.04203094 0.10260797 -0.23393017 -0.17510156 -0.045060195
0.20000441 0.24726243 0.014564339 0.1679709 0.08039685 0.13589081 -0.20367631 -0.06708613
-0.22044758 -0.24171345 0.26900065 -0.07887401 0.06919792 0.033007026 -0.18799071 0.33750898
-0.06557976 -0.05665473 -0.033715464 0.17125274 -0.25063264 -0.1139257 -0.41173148 -0.21064518
0.14002937 -0.36390844 0.14385945 -0.009431005 0.23957112 -0.079607494 -0.28952852 -0.11559281
0.21120675 0.20607714 -0.21121964 -0.060586773 -0.20953856 0.012682614 0.17345059 0.065755926
0.0369425 -0.029136684 -0.01819986 -0.2012748 0.17213391 -0.15342493 -0.040701922 -0.13753083
0.031868987 0.02305961 0.018394068 0.3000878 -0.18077558 -0.3498223 0.08102201 -0.06914104
-0.3487982 0.17556736 -0.34474516 -0.12279861 -0.19895247 -0.11348014 0.19822164 -0.14114505
0.21100938 0.17417306 0.00016182811 -0.18902157 0.12714122 0.10307482 0.18413405 -0.08520478
-0.38922125 -0.21134576 0.011144826 0.12036322 0.14150907 0.08032569 0.16363677 0.19125788
0.17897396 0.080592416 0.1751464 0.15940882 -0.12695566 -0.072486386 0.21378437 -0.03689943
-0.039508253 0.12865435 0.1406809 -0.3721151 -0.31420356 -0.07718556 -0.053132083 -0.2767841
-0.22629361 0.11746001 -0.1635674 -0.04083581 0.14405058 0.14986272 -0.1416093 -0.15750928
0.11095117 -0.11506981 0.12770873 -0.11130978 -0.27591667 -0.033902775 0.14320959 -0.09095541
00000000: 47e9 ee3d 3912 2d3e 3325 0b3e 8531 73be
00000010: 02b6 9dbe 8740 8bbe 5133 023e 5dda 10bd
00000020: c455 33be 1594 7b3e 3e0d dfbd 8215 24be
00000030: 4757 703d b3ad bfbe 12c3 d4bd 6126 d33d
00000040: 3ec7 2cbe 16ac 85be 6b0b 913c 9400 653e
00000050: a1bc 93be bca9 24be b2db cb3d ec2c 543e
00000060: 1903 f73d ef09 62be c1da 523c 925f 073e
00000070: b592 3cbe f367 153e c790 b1bc f9dc 1bbe
00000080: e6c4 c13d b5e3 cc3d e8f6 223d ad97 063e
00000090: 9378 2abd de7c a23d 302a bebe 47d1 ebbd
000000a0: b740 a3be bfa7 a0be 1f07 13bf d6b4 0dbd
000000b0: 14b7 8ebe 07ce 97be e542 123e e934 073c
000000c0: f925 ed3d 101d 3dbe ca16 6f3d b997 153d
000000d0: 9c04 8bbd f74a fabd 140a b63d de16 273d
000000e0: 9308 a63d 4f3b 09be 3486 9ebe bf60 babc
000000f0: f216 1dbe 3346 183e a71c f5bb 79d5 4d3e
00000100: c886 62be 1ae2 01be c02e bc3d 5a74 783e
00000110: 5070 393e f7a2 523e 0862 06be 1688 34be
00000120: 0aa9 da3d 4b56 5bbe 1faf b7bb 0248 043e
00000130: b1f5 47bd b934 77bb 469b 79bd 394f 6c3c
00000140: 84ee 8fbd 7366 b0bd 846c d8bb 224c 103e
00000150: 31d3 e7bd ac5d 1dbd 4de6 74be aff8 e73d
00000160: 45f4 4ebc 4863 6d3e 1ab8 6c3e 5cb5 febd
00000170: c8ad 24be f5f9 c2bd 52bb b7bd 3ac8 1d3e
00000180: a341 6fbe 278a aebc c6a9 03bd 321d 013e
00000190: 6f67 733d 48a8 0f3e d20e 6a3e 8c58 9fbe
000001a0: b693 3b3e 8519 a2bd 55eb fcbc 3cfe dd3d
000001b0: 3b52 0a3e 49ff 213e 0590 713d 8602 a43e
000001c0: d8aa 54be f0b8 47be d886 493e e4b9 89bd
000001d0: d27b 1dbe b207 713d aab6 e93d 2b91 b63d
000001e0: 9af6 333e 988a 98be 21ec 083e 172c 4e3d
000001f0: 0a3a acbd baf9 3fbe 6d89 ab3d 449f 05be
00000200: d3aa bebd ede4 593d 72cd 613e 48a9 b6be
00000210: 5bc1 d93c 7dff 3fbd e306 993d 15ae ccbc
00000220: ea78 d73d 31ce ec3d 8bcf 22be a328 2c3d
00000230: 2124 d23d 648b 6fbe d34d 33be 0a91 38bd
00000240: f5cd 4c3e 5d32 7d3e 449f 6e3c 9000 2c3e
00000250: 1ba7 a43d f626 0b3e 8690 50be 7464 89bd
00000260: 03bd 61be bb83 77be 74ba 893e b288 a1bd
00000270: a4b7 8d3d 6032 073d a380 40be facd ac3e
00000280: ae4e 86bd ca0e 68bd 3a19 0abd e15c 2f3e
00000290: ec52 80be e151 e9bd 78ce d2be 5fb3 57be
000002a0: dc63 0f3e 3552 babe e44f 133e 8184 1abc
000002b0: 2252 753e 4109 a3bd 153d 94be ecbb ecbd
000002c0: 9546 583e e305 533e f649 58be d629 78bd
000002d0: 4791 56be bdca 4f3c 089d 313e 0bab 863d
000002e0: 0551 173d 0eb0 eebc df17 95bc fb1a 4ebe
000002f0: df43 303e 6d1b 1dbe 0fb7 26bd e2d4 0cbe
00000300: 0e89 023d 82e7 bc3c 28af 963c 1ca5 993e
00000310: 3c1d 39be e91b b3be deee a53d d199 8dbd
00000320: ad95 b2be eec7 333e 7082 b0be d67d fbbd
00000330: 32ba 4bbe 4768 e8bd 9dfa 4a3e 5488 10be
00000340: d812 583e 6c5a 323e 67b0 2939 df8e 41be
00000350: 4f31 023e e418 d33d a38d 3c3e d87f aebd
00000360: 0248 c7be 066b 58be ca98 363c fe80 f63d
00000370: c1e7 103e cc81 a43d 6690 273e 1bd9 433e
00000380: f344 373e a30d a53d 9459 333e 113c 233e
00000390: aa00 02be be73 94bd 4aea 5a3e db23 17bd
000003a0: 68d3 21bd f7bd 033e a70e 103e df85 bebe
000003b0: 4adf a0be 7613 9ebd 07a1 59bd a5b6 8dbe
000003c0: 83b9 67be e08e f03d 367e 27be 7343 27bd
000003d0: ff81 133e 9d75 193e 0702 11be 1d4a 21be
000003e0: 5e3a e33d b8a9 ebbd 14c6 023e 62f6 e3bd
000003f0: f344 8dbe a3dd 0abd 89a5 123e d446 babd

bias f4 [10]
-0.024741698 -0.113762565 -0.14366266 -0.0371007 -0.008997292 0.00971672 -0.07669508 -0.0785427
-0.07167276 -0.05020828
00000000: 1aaf cabc 59fc e8bd 4e1c 13be e7f6 17bd
00000010: 6169 13bc e132 1f3c 4f12 9dbd ffda a0bd
00000020: 2bc9 92bd 33a7 4dbd
