CourseOne/net_w_hyperparameter_opt.pt (torch, 944031 bytes, 6 tensors)

weight f4 [256, 784]
0.017915776 0.033036605 -0.00010405852 0.023087522 0.032444045 0.040130597 0.010124023 0.021636223
0.010053313 0.017359516 0.010352193 0.021692151 0.03222821 -0.0017601316 0.043222465 0.00063413545
-0.018711789 0.032165922 0.031712815 -0.009813827 -0.01645326 0.0075764046 0.02494766 0.025887495
0.031152312 0.020176666 -0.009099209 0.042370807 -0.011121473 -0.015288998 -0.0039355466 -0.019166866
-0.01617949 0.033104453 -0.01997581 0.026794361 -0.0132548 0.02259185 0.008421301 -0.02159523
0.0214393 0.003914704 0.019749343 0.04689953 -0.014814946 0.032944363 0.006443513 -0.014986273
-0.0281065 -0.019805828 0.01153841 0.041224603 0.03187332 -0.024880407 -0.01214162 0.022233559
0.037048187 0.03534231 -0.011824048 0.021430919 -0.0197059 0.022265121 0.01528762 -0.02222628
0.01567229 -0.008222465 -0.029420525 0.019579945 -0.036924567 -0.030943548 -0.015266752 0.061804388
0.053799674 0.030253006 0.036141556 0.059634402 0.0010790753 0.026927456 -0.0115448795 0.02395901
0.024463551 0.005772145 -0.026287654 0.035369363 -0.024826331 -0.00131093 0.031220386 0.0067500393
-0.021651383 -0.024028866 0.02736435 0.018013058 0.04658925 0.03902247 -0.0031856243 -0.039820146
0.038903657 0.017660389 -0.007141172 0.08338829 0.04700824 0.027512163 -0.018361457 0.025198283
0.040006645 -0.04743983 -0.0043196096 0.010678264 0.020813433 0.046848457 0.022070475 -0.026887031
0.016351517 0.018784752 0.009211808 0.012271896 -0.006348318 0.026732821 0.0007000481 0.004899932
-0.024676528 -0.0020117634 -0.040731084 -0.023749383 0.017372785 0.065048315 0.034305762 0.051582392
0.053050872 -0.005360762 -0.00026953558 -0.007022804 0.0030873765 0.04282145 -0.017100742 0.008918904
0.029614277 0.05228742 0.040862773 0.024040462 0.003962182 0.006162357 0.028470788 0.006789785
-0.032322153 -0.0037618869 0.026775615 0.041151885 -0.052024685 -0.033761956 -0.050598886 -0.087160654
-0.016282806 0.00588275 0.04732138 0.016236806 -0.012520062 0.077340335 -0.03144977 0.0427114
0.060973335 0.061981358 0.04858909 0.024831304 0.0321991 -0.008340638 0.014738601 -0.014437057
0.04193834 0.009367056 0.035795428 -0.0058416715 -0.0062928037 -0.06941564 -0.045963842 -0.013589461
-0.05549637 -0.09084821 -0.059069872 -0.023191163 -0.024680482 -0.018812966 -0.009408574 0.051765196
0.016179113 0.010964677 -0.015090735 0.053483587 0.09104396 0.054891013 0.0019995803 0.025989024
0.02076393 0.042896353 0.03910037 0.02472301 0.035220463 0.02025334 -0.010625534 0.013673146
-0.033195823 0.017350238 -0.075735696 -0.065890566 -0.04087364 -0.07404152 -0.002918003 0.017935364
-0.008688375 0.017966459 -0.010972289 -0.0030212128 0.024011027 -0.004108953 0.021995638 0.050958302
-0.0080246255 -0.062035557 -0.027787361 0.016570842 -0.017230997 0.027057584 0.048573103 -0.021730334
0.0013318097 -0.026855381 0.023127923 0.026334384 0.011605995 0.011293181 -0.0027783606 -0.030251289
-0.068790056 -0.03451056 -0.017791346 -0.021112803 0.025869744 0.016653376 -0.014103718 0.0038173096
0.004138439 0.00915019 0.024335505 -0.01027086 0.012793762 -0.027376072 0.0034366057 0.008937904
0.06995727 0.037386943 0.053425007 0.035716437 0.027721038 -0.02439566 -0.020070199 0.013381581
00000000: 1bc4 923c 6451 073d fe39 dab8 0b22 bd3c
00000010: 0ce4 043d fb5f 243d 3bdf 253c 733e b13c
00000020: a7b6 243c 8b35 8e3c 3f9c 293c bdb3 b13c
00000030: ba01 043d 37b4 e6ba 0a0a 313d 1c3c 263a
00000040: 7749 99bc 6ac0 033d 4ce5 013d 2dca 20bc
00000050: fdc8 86bc 7d43 f83b 095f cc3c 0312 d43c
00000060: 2233 ff3c 8949 a53c d914 15bc 038d 2d3d
00000070: d736 36bc b57e 7abc c2f5 80bb d503 9dbc
00000080: da8a 84bc 8998 073d 4fa4 a3bc d97f db3c
00000090: a92a 59bc 8b12 b93c 7ff9 093c 7be8 b0bc
000000a0: 79a1 af3c eb46 803b 60c9 a13c b919 403d
000000b0: 63ba 72bc abf0 063d 1b24 d33b fc88 75bc
000000c0: 9a3f e6bc d53f a2bc 990b 3d3c 21db 283d
000000d0: 998d 023d ffd1 cbbc a5ed 46bc 2723 b63c
000000e0: d7bf 173d 19c3 103d a7b9 41bc e58f af3c
000000f0: 456e a1bc 5865 b63c ed78 7a3c e313 b6bc
00000100: 2d63 803c 85b7 06bc 5003 f1bc 1f66 a03c
00000110: 373e 17bd 537d fdbc 6621 7abc 9926 7d3d
00000120: 0c5d 5c3d 27d5 f73c 2b09 143d 3443 743d
00000130: c26f 8d3a f896 dc3c bc26 3dbc b045 c43c
00000140: c967 c83c 4324 bd3b 3559 d7bc 77df 103d
00000150: 9760 cbbc 83d3 abba e5c1 ff3c 6f2f dd3b
00000160: 3e5e b1bc 2fd8 c4bc 342b e03c 1f90 933c
00000170: 5fd4 3e3d 07d6 1f3d e8c5 50bb 731a 23bd
00000180: 7159 1f3d 85ac 903c 7e00 eabb 7bc7 aa3d
00000190: b68b 403d 3061 e13c c46a 96bc a16c ce3c
000001a0: 02de 233d 4450 42bd 838b 8dbb e3f3 2e3c
000001b0: ef80 aa3c 2be4 3f3d 24cd b43c 3142 dcbc
000001c0: 9ef3 853c 7be2 993c 20ed 163c 1010 493c
000001d0: 8d05 d0bb cafe da3c 6f83 373a 9c8f a03b
000001e0: 6e26 cabc cad7 03bb a3d5 26bd 118e c2bc
000001f0: 5f51 8e3c 0d38 853d 3384 0c3d 0f48 533d
00000200: df4b 593d 55a9 afbb 7450 8db9 8d1f e6bb
00000210: 9555 4a3b 8b65 2f3d db16 8cbc 9820 123c
00000220: a499 f23c 552b 563d b95f 273d 81f0 c43c
00000230: 31d5 813b 99ed c93b 923b e93c d87c de3b
00000240: 3c64 04bd fd89 76bb 8958 db3c e18e 283d
00000250: d617 55bd fa49 0abd c740 4fbd 4981 b2bd
00000260: 8563 85bc 15c4 c03b 10d4 413d 0d03 853c
00000270: f220 4dbc 9c64 9e3d 79d1 00bd 26f2 2e3d
00000280: 2dbf 793d 2ae0 7d3d 5b05 473d 056b cb3c
00000290: 34e3 033d 2ca7 08bc 2c7a 713c 6889 6cbc
000002a0: 89c7 2b3d 4878 193c 3a9e 123d 7e6b bfbb
000002b0: dd33 cebb c929 8ebd 9544 3cbd 55a6 5ebc
000002c0: 2950 63bd a00e babd 40f3 71bd 65fb bdbc
000002d0: b92e cabc a61d 9abc 6b26 1abc be07 543d
000002e0: 0f8a 843c 30a5 333c 213f 77bc 9b11 5b3d
000002f0: 4175 ba3d 66d5 603d 640b 033b efe6 d43c
00000300: 1e19 aa3c 16b4 2f3d b627 203d e987 ca3c
00000310: 5543 103d 55ea a53c b816 2ebc 5505 603c
00000320: 58f8 07bd 1622 8e3c 511b 9bbd a2f1 86bd
00000330: 1e6b 27bd 15a3 97bd f73b 3fbb 2fed 923c
00000340: b059 0ebc 652e 933c 1ec5 33bc 8aff 45bb
00000350: c6b2 c43c 65a4 86bb 3230 b43c a7b9 503d
00000360: b879 03bc ff18 7ebd 52a2 e3bc 93bf 873c
00000370: 0528 8dbc dea7 dd3c 97f4 463d d003 b2bc
00000380: 1e90 ae3a d1ff dbbc c576 bd3c 35bb d73c
00000390: 1227 3e3c 0907 393c 2815 36bb 8dd1 f7bc
000003a0: cde1 8cbd f25a 0dbd 28bf 91bc c2f4 acbc
000003b0: c9ec d33c a96c 883c 4813 67bc d42b 7a3b
000003c0: be9b 873b aeea 153c 415b c73c 1c47 28bc
000003d0: ed9c 513c c943 e0bc ad38 613b 4970 123c
000003e0: c245 8f3d 0d23 193d 2ed4 5a3d 664b 123d
000003f0: 3b17 e33c 68d9 c7bc 426a a4bc 6b3e 5b3c

bias f4 [256]
0.012689877 0.0054530697 -0.003286109 -0.018030643 0.040534813 -0.016777398 0.017419415 0.0053387056
0.025069319 -5.497898e-05 -0.016221914 0.019009944 -0.0107207615 0.014834512 -0.028152414 0.027696317
0.025340004 0.006282973 0.009077356 -0.0025669558 0.0037976953 0.020870807 0.03758131 -0.0052350657
-0.030851126 0.008416976 0.0370763 0.007575824 -0.02353122 0.010911556 0.031018693 -0.026760193
0.0371881 -0.008990939 0.01718271 -0.027608378 -0.04129182 0.033327546 -0.020504214 0.002807941
0.008862598 0.011370564 0.034358554 0.010183946 0.034008306 -0.006138081 -0.001397728 -0.018995212
0.02295891 -0.015605021 -0.006704969 0.014057238 -0.018374087 -0.01710648 -0.008855085 0.030976059
-0.0036725283 0.021823728 -0.020846508 0.022300145 0.04069477 -0.025385335 0.0020957117 0.0032033792
0.043193873 -0.03740014 0.0071762674 0.015666313 0.020347692 0.0013616332 -0.019646024 -0.009627511
0.036193803 -0.0106959855 0.013245145 -0.03442701 5.545863e-06 -0.029481256 -0.0032302318 -0.0074653258
0.018254908 -0.027588831 -0.03119323 0.011486406 0.0035749045 -0.024630904 -0.023820616 -0.02825764
-0.03273807 0.018830786 -0.006893547 0.0056302557 -0.0024339838 0.037449554 0.007167911 -0.030639205
0.0123963505 -0.010404482 -0.014961457 0.026723754 -0.026193015 -0.039324485 -0.012884553 0.025601083
0.028026523 0.019825194 0.0023433436 -0.011232985 -0.027489347 -0.03651846 0.0073363762 0.008221202
-0.0073811896 -0.0078011383 -0.0041333893 -0.028552933 0.025975516 -0.04062598 -0.0045900084 0.027112613
0.011353503 -0.021384133 0.024084724 0.005577037 -0.016191162 0.004420854 -0.028112039 -0.0027693827
0.029906303 0.017809877 0.005265255 -0.0008319161 0.007294624 -0.0018407467 0.01876491 -0.022090867
0.017352125 -0.0056048427 -0.004732192 0.032963056 -0.014525889 -0.037308156 0.00893537 0.03268613
-0.025504768 -0.030878797 0.00865735 0.0076716286 0.006343166 -0.03573448 0.029303068 -0.029988244
-0.0087132985 0.0057447753 0.021252453 -0.019046262 0.00025450706 -0.0245398 0.008398942 0.020883339
0.011745769 -0.010411848 -0.031773698 -0.01482984 0.01219101 -0.021250177 0.0062517836 0.0010723765
0.025116362 -0.023491269 0.016234221 0.017302731 -0.012032173 -0.011562058 0.027270548 -0.021916892
-0.030177271 0.0008825937 -0.025617583 -0.0054542627 0.01722238 -0.026719172 -0.018240986 -0.0054384605
1.2958499e-06 -0.0012209328 -0.017058054 0.03329642 -0.004000539 0.012575632 -0.02268335 -0.010158912
0.031025713 -9.3688155e-05 -0.01551932 -0.026293248 0.025281105 -0.020246077 -0.011217102 0.014265038
0.0064399163 0.037666917 -0.017819216 0.0206436 0.0130043095 0.023357373 0.026490806 0.0023308836
0.027768176 0.023596391 -0.030509839 -0.008447992 -0.02799471 -0.016411684 0.02068614 0.0032355606
-0.029234555 2.6425267e-05 0.025512654 0.016468812 -0.0085221995 -0.013355887 -0.017879123 -0.030288918
-0.031493142 0.036487237 -0.014676953 -0.04630484 0.03539943 0.03574728 0.0026315334 0.03607053
-0.024822881 0.032199685 0.017178506 0.015839681 -0.010030491 -0.032374952 0.014569095 -0.009736222
-0.031490933 -0.019745572 0.001364601 0.009682335 0.033773568 -0.028495686 0.018268626 -0.003257943
-0.019858005 -0.011571947 -0.02591539 -0.03604021 -0.00045428023 0.0070387647 -0.025833352 0.019490723
00000000: 34e9 4f3c aaaf b23b c35b 57bb 00b5 93bc
00000010: d507 263d c170 89bc 29b3 8e3c 4ff0 ae3b
00000020: 2c5e cd3c 3b99 66b8 d2e3 84bc beba 9b3c
00000030: 22a6 2fbc 740c 733c e49f e6bc 63e3 e23c
00000040: d795 cf3c 66e1 cd3b 31b9 143c 5f3a 28bb
00000050: c1e2 783b 41f9 aa3c dcee 193d ea8a abbb
00000060: 80bb fcbc 5be7 093c 51dd 173d 9e3e f83b
00000070: 8cc4 c0bc 62c6 323c ea1a fe3c 3138 dbbc
00000080: 8d52 183d bb4e 13bc c1c2 8c3c f72a e2bc
00000090: 9d21 29bd 7782 083d 74f8 a7bc 6f05 383b
000000a0: 6e34 113c 9a4b 3a3c 8ebb 0c3d 91da 263c
000000b0: 4b4c 0b3d f521 c9bb f833 b7ba d99b 9bbc
000000c0: 5314 bc3c 34ac 7fbc 5bb5 dbbb 5450 663c
000000d0: 4185 96bc e422 8cbc eb14 11bc 81c1 fd3c
000000e0: cdae 70bb adc7 b23c 4cc6 aabc cbae b63c
000000f0: 8faf 263d e8f4 cfbc 3558 093b c9ef 513b
00000100: 0fec 303d e430 19bd e526 eb3b a456 803c
00000110: 34b0 a63c d478 b23a b3f0 a0bc b5bc 1dbc
00000120: f43f 143d 373e 2fbc 2a02 593c 5603 0dbd
00000130: 9a16 ba36 ad82 f1bc 4cb2 53bb b19f f4bb
00000140: 518b 953c f901 e2bc f288 ffbc 7b31 3c3c
00000150: f248 6a3b c0c6 c9bc 7423 c3bc 917c e7bc
00000160: 5b18 06bd 0543 9a3c 43e3 e1bb 027e b83b
00000170: 7983 1fbb b464 193d cce0 ea3b 12ff fabc
00000180: 101a 4b3c 8f77 2abc e620 75bc c6eb da3c
00000190: bc92 d6bc b612 21bd bb19 53bc 5db9 d13c
000001a0: e197 e53c 7268 a23c c892 193b 8e0a 38bc
000001b0: 5731 e1bc 6194 15bd fc65 f03b 38b2 063c
000001c0: e8dd f1bb b1a0 ffbb 6271 87bb d7e7 e9bc
000001d0: 9bca d43c 6d67 26bd c867 96bb 451b de3c
000001e0: 0b04 3a3c c72d afbc 544d c53c 94bf b63b
000001f0: 54a3 84bc d0dc 903b 384b e6bc 887e 35bb
00000200: 10fe f43c 05e6 913c 2988 ac3b f214 5aba
00000210: be07 ef3b 3645 f1ba deb8 993c e8f7 b4bc
00000220: 0b26 8e3c d4a8 b7bb 8110 9bbb 4504 073d
00000230: fffd 6dbc 70d0 18bd a865 123c e4e1 053d
00000240: 60ef d0bc 88f5 fcbc 8fd7 0d3c 4962 fb3b
00000250: 55da cf3b 515e 12bd fd0c f03c e8a9 f5bc
00000260: 39c2 0ebc ab3e bc3b a019 ae3c e806 9cbc
00000270: 5c6f 8539 b107 c9bc b79b 093c 8913 ab3c
00000280: 5371 403c 7596 2abc 2325 02bd dbf8 72bc
00000290: cdbc 473c da14 aebc c3db cc3b fc8e 8c3a
000002a0: d4c0 cd3c c370 c0bc a1fd 843c 75be 8d3c
000002b0: 9722 45bc c96e 3dbc 7c66 df3c 0e8b b3bc
000002c0: 5336 f7bc dc5d 673a f7db d1bc acb9 b2bb
000002d0: f315 8d3c 2ae2 dabc 1f6e 95bc 1d35 b2bb
000002e0: 10ed ad35 b507 a0ba 55bd 8bbc d461 083d
000002f0: f416 83bb 060a 4e3c 6fd2 b9bc 9171 26bc
00000300: a329 fe3c 727a c4b8 bf44 7ebc f064 d7bc
00000310: 521a cf3c 1adb a5bc f0c7 37bc e8b7 693c
00000320: ef05 d33b a048 1a3d 9bf9 91bc c41c a93c
00000330: 0710 553c f657 bf3c 3f03 d93c bdc1 183b
00000340: 167a e33c 384d c13c c5ef f9bc 7269 0abc
00000350: 2955 e5bc cc71 86bc fb75 a93c b30b 543b
00000360: 4e7d efbc d4ab dd37 eaff d03c 9ae9 863c
00000370: b2a0 0bbc a6d2 5abc 3d77 92bc 7720 f8bc
00000380: f4fe 00bd a473 153d 9a77 70bc 25aa 3dbd
00000390: fefe 103d bd6b 123d ce75 2c3b b1be 133d
000003a0: 5b59 cbbc d1e3 033d f0b9 8c3c 38c2 813c
000003b0: ee56 24bc 999b 04bd 37b3 6e3c ad84 1fbc
000003c0: a3fc 00bd 77c1 a1bc 69dc b23a a8a2 1e3c
000003d0: 2756 0a3d c96f e9bc 16a8 953c 3783 55bb
000003e0: 41ad a2bc 4398 3dbc 834c d4bc e69e 13bd
000003f0: 762c eeb9 70a5 e63b 77a0 d3bc 02ab 9f3c

weight f4 [128, 256]
0.0024262876 -0.07769172 0.017471122 0.05678363 -0.04263949 -0.034326266 -0.007883882 -0.06095978
0.0068089347 -0.02001653 -0.032544587 -0.029381244 0.0342781 0.014256951 0.04317854 0.014034766
0.05056343 -0.054592848 0.034736 -0.03304092 -0.037888758 0.02963631 0.079849884 0.022144366
0.052020866 0.06885834 0.047107466 -0.019549025 -0.01404733 -0.010576687 -0.039624464 0.029033002
-0.06572539 0.018856637 0.04428412 0.020306295 0.04092579 -0.03508219 -0.024380704 0.038780097
0.08623115 -0.017773552 -0.027318751 -0.017250927 -0.018630203 -0.030567719 0.10633449 0.023668114
0.04168808 0.04569595 0.030764235 0.03213262 -0.061633877 -0.06889917 -0.038553406 -0.015897976
-0.07728015 -0.056371994 -0.007950412 0.008604096 -0.006137948 0.084261015 0.04108096 -0.027751831
-0.0036503654 -0.015434884 0.05031266 -0.043074474 0.0073703867 -0.015074194 -0.0132711055 0.0498739
0.040084258 0.027641684 -0.020781163 -0.047651056 -0.01991408 -0.08764604 0.03933548 -0.035113055
0.01666756 0.057996277 -0.05632238 -0.040428992 -0.03457519 0.052587766 -0.056391094 -0.06839682
0.025948811 -0.02465205 -0.07219253 0.010064429 -0.0647864 -0.06406038 -0.03453461 0.008231015
-0.025257073 -0.033712592 -0.050396547 0.02844203 0.0030331549 -0.06209572 -0.08869076 -0.057986334
0.060769957 -0.00765945 0.08846951 -0.004561672 0.013612832 0.004923957 0.04617887 -0.042808533
0.047657643 -0.050995592 0.058937553 0.022551743 -0.04082463 -0.050972007 0.01973246 0.0075032986
0.017663985 -0.04036178 -0.001899628 0.074604295 0.05308937 0.03644392 0.046631236 0.05575552
0.028123416 0.011103522 0.04537551 -0.07594839 -0.058672454 -0.009612148 -0.019234112 0.05444712
0.06585563 -0.055108 0.030947331 -0.061067298 -0.024365528 -0.0668166 -0.06930496 0.008108357
0.032940194 0.017877001 -0.0032319368 0.007427417 0.034769967 -0.0041836714 -0.063644946 -0.050913118
0.016599342 0.031746704 -0.00010719521 0.045284618 -0.053565748 0.03302028 -0.07880715 0.012680176
0.030502772 -0.026878024 -0.08076895 -0.06457014 0.009945348 -0.07177935 0.008132923 0.07525858
-0.02566988 0.0641594 0.026867855 0.05937914 -0.029646864 -0.081207074 0.05095243 -0.07350141
-0.037152763 -0.0035987757 -0.07068598 -0.04814812 -0.013631289 -0.004962832 -0.022799155 -0.051292453
-0.02803839 -0.006788714 -0.05405827 -0.06049838 0.011697579 0.009180956 -0.0020045568 0.049964745
0.057832528 0.036643215 -0.06373541 0.03789858 0.012249342 -0.052935585 -0.03382369 -0.021024393
0.097128056 -0.02140312 0.030449871 0.06628849 -0.051384833 0.0035087662 -0.045533396 0.04123175
-0.02024419 0.024858845 -0.02812408 -0.042936157 -0.055926796 -0.04285734 -0.01665041 0.01335798
0.01600838 0.03126205 -0.068799935 0.04838986 0.013134633 0.009024181 -0.038493514 -0.077715866
0.0650131 0.05109177 0.020945705 -0.051913317 -0.0766772 -0.020130236 0.059455436 0.05555867
-0.026740795 0.00757401 -0.03884015 0.04578197 0.05657434 0.052361123 0.024846777 0.07068359
0.0140856225 0.0072887396 0.072554156 0.0067358473 -0.013835099 -0.06904067 0.026860112 0.013386136
-0.06619427 -0.037648305 0.022633208 -0.0017411411 0.04967526 0.026169043 -0.056234717 -0.022266084
00000000: 5a02 1f3b d61c 9fbd 991f 8f3c f495 683d
00000010: bfa6 2ebd b399 0cbd 662b 01bc f6b0 79bd
00000020: 7c1d df3b b5f9 a3bc 794d 05bd efb0 f0bc
00000030: 3167 0c3d fd95 693c fbdb 303d 13f2 653c
00000040: 991b 4f3d c09c 5fbd 5647 0e3d ea55 07bd
00000050: 3e31 1bbd d9c7 f23c 5688 a33d 1a68 b53c
00000060: d513 553d 9a05 8d3d c2f3 403d 4725 a0bc
00000070: c626 66bc d749 2dbc 434d 22bd 9ed6 ed3c
00000080: 099b 86bd 3c79 9a3c 4463 353d 6359 a63c
00000090: cda1 273d 58b2 0fbd 0bba c7bc e1d7 1e3d
000000a0: f599 b03d d799 91bc 93cb dfbc d151 8dbc
000000b0: 5e9e 98bc 2769 fabc e6c5 d93d a2e3 c13c
000000c0: 1fc1 2a3d ad2b 3b3d 4705 fc3c 7f9d 033d
000000d0: ce73 7cbd 021b 8dbd 2dea 1dbd 793c 82bc
000000e0: 0e45 9ebd 52e6 66bd 7242 02bc 32f8 0c3c
000000f0: d720 c9bb 0a91 ac3d 8244 283d cf57 e3bc
00000100: f83a 6fbb 98e2 7cbc a614 4e3d dc6e 30bd
00000110: 4983 f13b c1f9 76bc 0d6f 59bc 9348 4c3d
00000120: 642f 243d d070 e23c 423d aabc c12d 43bd
00000130: da22 a3bc c47f b3bd 3e1e 213d b5d2 0fbd
00000140: 688a 883c 818d 6d3d 4cb2 66bd df98 25bd
00000150: b79e 0dbd 4566 573d 59fa 66bd a213 8cbd
00000160: 9a92 d43c 19f3 c9bc add9 93bd 46e5 243c
00000170: bbae 84bd 1732 83bd 2a74 0dbd 61db 063c
00000180: ece7 cebc 3716 0abd 9c6c 4ebd 43ff e83c
00000190: e5c7 463b 1558 7ebd 80a3 b5bd 1483 6dbd
000001a0: ebe9 783d 20fc fabb 812f b53d 147a 95bb
000001b0: 5b08 5f3c 2559 a13b 0e26 3d3d 0058 2fbd
000001c0: a934 433d c1e0 50bd 8168 713d 6fbe b83c
000001d0: ba37 27bd 06c8 50bd f8a5 a13c 3bde f53b
000001e0: 10b4 903c 6552 25bd f0fc f8ba 23ca 983d
000001f0: 3d74 593d 3846 153d 6500 3f3d e65f 643d
00000200: 1463 e63c 8ceb 353c acdb 393d d48a 9bbd
00000210: 8752 70bd 457c 1dbc db90 9dbc f103 5f3d
00000220: 51df 863d edb8 61bd 4285 fd3c b421 7abd
00000230: 379a c7bc 24d7 88bd c2ef 8dbd ead8 043c
00000240: 4cec 063d ca72 923c e7ce 53bb b161 f33b
00000250: f46a 0e3d 2e17 89bb 4858 82bd 468a 50bd
00000260: 58fb 873c d508 023d fdcd e0b8 5d7c 393d
00000270: c267 5bbd 4640 073d a565 a1bd 83c0 4f3c
00000280: f3e0 f93c 4d2f dcbc 316a a5bd 593d 84bd
00000290: d0f1 223c 0d01 93bd f43f 053c 2c21 9a3d
000002a0: a449 d2bc 0166 833d fa19 dc3c 8b37 733d
000002b0: fbdd f2bc e54f a6bd 7fb3 503d e887 96bd
000002c0: 7f2d 18bd 70d9 6bbb d0c3 90bd f736 45bd
000002d0: c555 5fbc 419f a2bb 4bc5 babc 0918 52bd
000002e0: c4b0 e5bc dc73 debb 346c 5dbd 26cd 77bd
000002f0: 34a7 3f3c b86b 163c e25e 03bb d5a7 4c3d
00000300: cde1 6c3d 3217 163d b687 82bd 8b3b 1b3d
00000310: 77b1 483c fcd2 58bd b68a 0abd 593b acbc
00000320: 13eb c63d 9955 afbc 0272 f93c 43c2 873d
00000330: e778 52bd 54f3 653b 3a81 3abd a0e2 283d
00000340: 25d7 a5bc c7a4 cb3c 7864 e6bc d3dd 2fbd
00000350: 7f13 65bd 2e8b 2fbd 7166 88bc 6edb 5a3c
00000360: 0224 833c a30c 003d fbe6 8cbd 7234 463d
00000370: a532 573c 29da 133c 60ab 1dbd 7f29 9fbd
00000380: 9725 853d 9b45 513d 5496 ab3c 0fa3 54bd
00000390: f008 9dbd 2ae8 a4bc 8b87 733d 7d91 633d
000003a0: 830f dbbc 672f f83b d916 1fbd e085 3b3d
000003b0: 7fba 673d 9e78 563d 788b cb3c 8fc2 903d
000003c0: 62c7 663c 61d6 ee3b 4697 943d 62b8 dc3b
000003d0: 9cac 62bc 3265 8dbd bd09 dc3c 8651 5b3c
000003e0: dd90 87bd 1c35 1abd 4769 b93c 0037 e4ba
000003f0: 4978 4b3d 7660 d63c 6056 66bd 5d67 b6bc

bias f4 [128]
-0.007618734 -0.0040870644 0.07893235 -0.035354275 0.02358645 0.0433324 0.074354805 0.05738833
-0.031492833 0.06258797 -0.018054986 0.016043484 0.042698346 -0.011168053 -0.050987527 0.047012184
0.014608639 0.0039756657 -0.018252011 0.054813996 0.019209635 -0.023055885 0.035668526 0.01932743
0.012927634 -0.0076632435 -0.040306583 -0.048453495 0.05556728 0.050271194 -0.006417991 -0.013589341
-0.038304616 0.003775866 0.047431946 0.056499545 0.028023675 0.07878357 -0.033264656 0.0036742168
0.061647743 -0.046022005 0.011296572 0.0019276338 -0.023272775 0.050131544 -0.01703149 -0.0184243
-0.04433393 0.05458102 0.04070886 -0.038904317 0.051147822 -0.008342116 -0.011193479 0.0026029365
-0.058008883 -0.016643703 -0.03396594 0.0015771589 0.038368776 -0.013468684 -0.008618897 -0.037460566
0.043616664 0.052178122 0.0004952079 0.07599204 -0.0080990475 0.03790232 -0.03856051 -0.011694082
-0.0481042 -0.007071157 -0.071831934 -0.040640745 -0.023434943 -0.017447596 0.03833895 0.010741507
-0.03870461 -0.014701984 0.06566222 0.04887924 0.0031354718 -0.044664726 -0.03185941 -0.0006604689
-0.036570095 -0.0051840357 -0.033402912 -0.051303968 -0.021529024 -0.043869566 0.08182862 0.04424878
0.03342496 -0.035840042 -0.03766311 0.06134502 -0.07957801 0.055690613 0.0816376 -0.025441358
0.07215767 0.04582551 0.00044216984 -0.03519011 -0.00028221155 -0.015448623 -0.026123539 0.038008466
-0.0367843 -0.00328629 0.04726582 -0.04044409 -0.018796697 -0.031651113 -0.02738851 0.097095236
0.03166886 -0.0044817594 0.062580734 0.07204768 -0.023908257 -0.027914904 0.039050065 0.039268464
00000000: 93a6 f9bb c8ec 85bb 49a7 a13d a5cf 10bd
00000010: 5f38 c13c 517d 313d 5547 983d 0710 6b3d
00000020: a1fe 00bd 1f2e 803d 0de8 93bc a06d 833c
00000030: 76e4 2e3d 36fa 36bc 4cd8 50bd d98f 403d
00000040: 1359 6f3c 4d46 823b 3e85 95bc a484 603d
00000050: 865d 9d3c b2df bcbc 2919 123d 8f54 9e3c
00000060: 6dce 533c f21b fbbb 8418 25bd 2c77 46bd
00000070: 849a 633d 2be9 4d3d 034e d2bb d4a5 5ebc
00000080: 4de5 1cbd 8574 773b 0048 423d 116c 673d
00000090: e891 e53c 4859 a13d 8540 08bd 21cb 703b
000000a0: 5882 7c3d 9281 3cbd 4215 393c a8a8 fc3a
000000b0: 8ca6 bebc bc56 4d3d a085 8bbc 8fee 96bc
000000c0: 7f97 35bd 5990 5f3d 55be 263d 225a 1fbd
000000d0: 6180 513d 5fad 08bc db64 37bc 0796 2a3b
000000e0: b99a 6dbd 6058 88bc df1f 0bbd acb8 ce3a
000000f0: 9428 1d3d c1ab 5cbc 4636 0dbc 4070 19bd
00000100: 63a7 323d bab8 553d d7d0 013a b7a1 9b3d
00000110: deb1 04bc 773f 1b3d a0f1 1dbd 8998 3fbc
00000120: e908 45bd 2ab5 e7bb 9f1c 93bd e976 26bd
00000130: a3fa bfbc 43ee 8ebc 4e09 1d3d 25fd 2f3c
00000140: ba88 1ebd 97e0 70bc ea79 863d 9935 483d
00000150: 7d7c 4d3b 5cf2 36bd 037f 02bd 5123 2dba
00000160: 86ca 15bd d8de a9bb 7ed1 08bd 1c24 52bd
00000170: a35d b0bc 93b0 33bd c395 a73d 353e 353d
00000180: 9ce8 083d 02cd 12bd a244 1abd ea44 7b3d
00000190: ccf9 a2bd d71b 643d 9d31 a73d 656a d0bc
000001a0: 67c7 933d 88b3 3b3d 08d3 e739 8123 10bd
000001b0: cbf5 93b9 391c 7dbc 0801 d6bc c4ae 1b3d
000001c0: 22ab 16bd cc5e 57bb ce99 413d b4a8 25bd
000001d0: 88fb 99bc 99a4 01bd de5d e0bc ded9 c63d
000001e0: 35b7 013d b9db 92bb 542a 803d bc8d 933d
000001f0: 40db c3bc ccad e4bc f6f2 1f3d f8d7 203d

weight f4 [10, 128]
0.052501783 0.034817882 0.058649328 -0.08423622 -0.13203812 0.073560774 -0.17058289 -0.051882632
0.011426926 0.012367182 -0.13563618 -0.20807911 -0.03542754 -0.1458258 0.020189326 0.14204738
-0.09156878 -0.063661195 0.049131803 0.08143364 -0.13551553 -0.051115338 -0.037657417 -0.023350945
-0.075424954 -0.024059035 0.050798673 -0.03426837 0.016378319 0.089627676 -0.16962777 0.035467714
0.1100555 -0.010960787 0.036811277 0.03754383 -0.020435413 0.056607943 -0.07440604 0.036821503
-0.12300226 -0.17090364 -0.04263744 -0.12462277 -0.06737744 0.11359746 0.09678176 -0.07902742
-0.09099897 0.15266444 -0.21385378 -0.031603016 0.09612032 -0.14591885 -0.02632065 0.050368883
-0.081479535 -0.10069653 0.0822602 0.13824174 0.040212914 0.040096175 0.056088865 0.008616551
-0.17686182 -0.24310556 -0.07596236 0.11482012 -0.006577217 -0.048587937 0.034990106 -0.27302024
-0.16626798 0.006842677 0.031963725 0.10890415 0.063310884 -0.1474346 0.028724013 -0.14526942
0.15540078 -0.08599732 -0.030272467 -0.11170427 -0.16667378 0.06742055 0.1013028 -0.10839737
0.17145586 0.069947086 -0.040153276 0.085879624 0.09969878 -0.0067877113 -0.0750235 0.0672179
-0.04178489 0.009972488 0.029184 -0.0753221 0.07843446 0.15901501 -0.1602335 -0.07923494
0.06184236 0.01120378 0.14249708 0.00928524 0.08805148 -0.22827996 -0.19544706 0.11618605
0.055571485 -0.13306005 0.089027196 -0.17602257 0.040942077 -0.13226041 0.15433045 -0.18945754
0.021630479 -0.07199047 0.041554555 0.05435303 -0.11676986 0.10294188 0.065423906 0.080652066
-0.041387226 0.023060655 0.06635084 -0.07943095 0.0117072975 0.02390395 0.04304925 -0.12245582
-0.13748391 0.034994204 -0.06251015 -0.114162326 -0.055145927 0.12002758 0.014816708 -0.012674462
-0.0020186251 -0.19838049 -0.064234555 -0.14949587 -0.08218994 0.03452242 0.04362214 0.17993358
0.1292237 -0.040730666 0.11723213 0.08821001 -0.20019482 0.08479872 -0.111301795 -0.19698004
0.08947791 0.08102457 0.15597358 0.13666765 -0.083384044 -0.10852167 0.11139479 -0.17372392
-0.20355815 0.04988743 -0.08385335 0.13787524 0.051414866 0.005016916 -0.1691167 -0.15888347
0.054026786 0.045516487 -0.09379879 -0.077236116 0.108367264 -0.20043617 0.013321042 0.14918916
0.078420386 0.06359557 0.15546222 -0.11299062 -0.071241125 -0.043551043 -0.17418885 -0.05631167
0.03195651 0.025511933 -0.16865616 -0.17888461 0.10871713 -0.011176417 -0.084670104 0.053368594
0.13409637 -0.110332176 0.02033244 -0.043433804 -0.043462772 0.10682452 -0.15616421 0.097006194
-0.11663048 -0.081470534 -0.12461589 -0.03192477 0.03574665 0.1518361 -0.14201723 0.08306734
0.04973036 -0.07749069 -0.009004224 -0.0037997363 0.10039082 -0.10303536 0.03291295 -0.05526104
-0.060078993 -0.11896856 -0.081527084 0.14893445 0.044091012 -0.17137212 0.06532676 0.12645921
-0.07725425 -0.052627776 -0.1560973 0.018175425 -0.20943856 -0.18391162 0.052105583 0.09693409
0.015913835 -0.16613653 0.08045619 -0.16607419 -0.13807282 0.16048786 0.02115679 0.094558716
0.084668614 -0.15108483 -0.106918916 0.1073352 -0.120707914 0.06687108 -0.016638031 -0.08140271
00000000: 1c0c 573d 329d 0e3d 473a 703d 0a84 acbd
00000010: 0035 07be 08a7 963d 48ad 2ebe e282 54bd
00000020: 0038 3b3c b99f 4a3c 36e4 0abe b112 55be
00000030: 781c 11bd 5c53 15be 1664 a53c de74 113e
00000040: 6a88 bbbd cd60 82bd 6e3e 493d aec6 a63d
00000050: 95c4 0abe 515e 51bd aa3e 1abd 7b4a bfbc
00000060: 6678 9abd 7417 c5bc 4512 503d fe5c 0cbd
00000070: d32b 863c b78e b73d e7b2 2dbe 9846 113d
00000080: c764 e13d df94 33bc 6cc7 163d 8fc7 193d
00000090: 2b68 a7bc bbdd 673d 3262 98bd 25d2 163d
000000a0: 9ce8 fbbd 5d01 2fbe 99a4 2ebd 393a ffbd
000000b0: 2ffd 89bd c9a5 e83d 8435 c63d 21d9 a1bd
000000c0: ab5d babd 1154 1c3e 7cfc 5abe 2a72 01bd
000000d0: bbda c43d c06b 15be 679e d7bc 9a4f 4e3d
000000e0: bede a6bd fb39 cebd 0978 a83d 3e8f 0d3e
000000f0: 4cb6 243d e33b 243d 70bd 653d 6f2c 0d3c
00000100: 441b 35be aaf0 78be 2792 9bbd d026 eb3d
00000110: b285 d7bb 2504 47bd c951 0f3d 4fc9 8bbe
00000120: 2742 2abe 8938 e03b 65ec 023d 2409 df3d
00000130: 23a9 813d 19f9 16be 9f4e eb3c 82c1 14be
00000140: 6221 1f3e 5d1f b0bd f7fd f7bc 35c5 e4bd
00000150: 88ac 2abe c913 8a3d d877 cf3d 71ff ddbd
00000160: 2092 2f3e 6b40 8f3d c377 24bd a8e1 af3d
00000170: e02e cc3d 736b debb eca5 99bd 8aa9 893d
00000180: a226 2bbd a563 233c 4913 ef3c 7942 9abd
00000190: 3fa2 a03d d5d4 223e 4014 24be ee45 a2bd
000001a0: 6a4e 7d3d 0f90 373c c1ea 113e 1f21 183c
000001b0: 5654 b43d 39c2 69be 4623 48be f4f2 ed3d
000001c0: ed9e 633d e540 08be e453 b63d 433f 34be
000001d0: e1b2 273d 466f 07be cd08 1e3e 2801 42be
000001e0: 6732 b13c bd6f 93bd 1c35 2a3d 48a1 5e3d
000001f0: 0925 efbd 31d3 d23d f8fc 853d e92c a53d
00000200: a785 29bd b3e9 bc3c f3e2 873d b2ac a2bd
00000210: f7cf 3f3c 37d2 c33c 6954 303d 1eca fabd
00000220: 95c8 0cbe 1556 0f3d 5205 80bd f0cd e9bd
00000230: b2e0 61bd 05d1 f53d c7c1 723c 8ca8 4fbc
00000240: e94a 04bb 4124 4bbe 688d 83bd 7215 19be
00000250: 3353 a8bd 6267 0d3d 21ad 323d 8240 383e
00000260: 3853 043e 33d5 26bd 6617 f03d 73a7 b43d
00000270: dfff 4cbe f4aa ad3d 32f2 e3bd 23b5 49be
00000280: 3240 b73d 36f0 a53d 8ab7 1f3e 9bf2 0b3e
00000290: 41c5 aabd 9c40 debd f422 e43d afe4 31be
000002a0: 8c71 50be c356 4c3d 4ebb abbd 2b2f 0d3e
000002b0: 6598 523d f164 a43b ee2c 2dbe 59b2 22be
000002c0: 314b 5d3d 7f6f 3a3d 9419 c0bd f82d 9ebd
000002d0: a8ef dd3d 243f 4dbe 8040 5a3c 0bc5 183e
000002e0: de9a a03d 653e 823d 7d31 1f3e a067 e7bd
000002f0: dee6 91bd 9462 32bd 905e 32be 11a7 66bd
00000300: d4e4 023d 67fe d03c 33b4 2cbe 872d 37be
00000310: 16a7 de3d 4a1d 37bc 8567 adbd 0799 5a3d
00000320: 8f50 093e d6f5 e1bd 3890 a63c a5e7 31bd
00000330: 0506 32bd d0c6 da3d 83e9 1fbe 2fab c63d
00000340: f6db eebd 06da a6bd 9e36 ffbd 8cc3 02bd
00000350: 146b 123d ec7a 1b3e f76c 11be 361f aa3d
00000360: 10b2 4b3d 70b3 9ebd 7486 13bc ff04 79bb
00000370: b499 cd3d 3404 d3bd bbcf 063d 6659 62bd
00000380: 6415 76bd caa5 f3bd acf7 a6bd 4682 183e
00000390: c798 343d 2c7c 2fbe 09ca 853d 867e 013e
000003a0: 7a37 9ebd 3990 57bd f8d7 1fbe a1e4 943c
000003b0: 1077 56be 5453 3cbe aa6c 553d 6185 c63d
000003c0: bb5d 823c b21f 2abe 37c6 a43d 5a0f 2abe
000003d0: f662 0dbe ee56 243e 0151 ad3c 00a8 c13d
000003e0: bd66 ad3d fbb5 1abe 4ef8 dabd 8fd2 db3d
000003f0: b635 f7bd b4f3 883d 7b4c 88bc 77b6 a6bd

bias f4 [10]
-0.02524476 0.07467353 -0.04558589 -0.018575383 -0.0077915015 0.022028254 0.03913277 0.014774053
0.011288215 -0.058869828
00000000: 19ce cebc 70ee 983d 45b8 3abd 672b 98bc
00000010: da4f ffbb 9974 b43c af49 203d df0e 723c
00000020: 35f2 383c 7d21 71bd
